…
 INFO: 02_transfer_learning_even_odd]: 
********************
[2022-11-12 16:31:11,370: INFO: 02_transfer_learning_even_odd]: >>>>> stage Transfer learning started <<<<<
[2022-11-12 16:31:11,371: INFO: common]: yaml file: configs/config.yaml loaded successfully
[2022-11-12 16:31:13,257: INFO: 02_transfer_learning_even_odd]: Loaded base model summary: 
Model: "sequential"
_________________________________________________________________
 Layer (type)                Output Shape              Param #   
=================================================================
 inputLayer (Flatten)        (None, 784)               0         
                                                                 
 hiddenLayer1 (Dense)        (None, 300)               235500    
                                                                 
 leaky_re_lu (LeakyReLU)     (None, 300)               0         
                                                                 
 hiddenLayer2 (Dense)        (None, 100)               30100     
                                                                 
 leaky_re_lu_1 (LeakyReLU)   (None, 100)               0         
                                                                 
 outputLayer (Dense)         (None, 10)                1010      
                                                                 
=================================================================
Total params: 266,610
Trainable params: 266,610
Non-trainable params: 0
_________________________________________________________________

[2022-11-12 16:31:13,327: INFO: 02_transfer_learning_even_odd]: Loaded new Transfer learning model summary: 
Model: "sequential"
_________________________________________________________________
 Layer (type)                Output Shape              Param #   
=================================================================
 inputLayer (Flatten)        (None, 784)               0         
                                                                 
 hiddenLayer1 (Dense)        (None, 300)               235500    
                                                                 
 leaky_re_lu (LeakyReLU)     (None, 300)               0         
                                                                 
 hiddenLayer2 (Dense)        (None, 100)               30100     
                                                                 
 leaky_re_lu_1 (LeakyReLU)   (None, 100)               0         
                                                                 
 output_layer (Dense)        (None, 2)                 202       
                                                                 
=================================================================
Total params: 265,802
Trainable params: 202
Non-trainable params: 265,600
_________________________________________________________________

[2022-11-12 16:32:29,766: INFO: 02_transfer_learning_even_odd]: Base model is saved at artifacts\models\even_odd_model.h5
…
