…
 INFO: 02_transfer_learning_even_odd]: 
********************
[2022-11-12 16:31:11,370: INFO: 02_transfer_learning_even_odd]: >>>>> stage Transfer learning started <<<<<
[2022-11-12 16:31:11,371: INFO: common]: yaml file: configs/config.yaml loaded successfully
[2022-11-12 16:31:13,257: INFO: 02_transfer_learning_even_odd]: Loaded base model summary: 
Model: "sequential"
_________________________________________________________________
 Layer (type)                Output Shape              Param #   
=================================================================
 inputLayer (Flatten)        (None, 784)               0         
                                                                 
 hiddenLayer1 (Dense)        (None, 300)               235500    
                                                                 
 leaky_re_lu (LeakyReLU)     (None, 300)               0         
                                                                 
 hiddenLayer2 (Dense)        (None, 100)               30100     
                                                                 
 leaky_re_lu_1 (LeakyReLU)   (None, 100)               0         
                                                                 
 outputLayer (Dense)         (None, 10)                1010      
                                                                 
=================================================================
Total params: 266,610
Trainable params: 266,610
Non-trainable params: 0
_________________________________________________________________

[2022-11-12 16:31:13,327: INFO: 02_transfer_learning_even_odd]: Loaded new Transfer learning model summary: 
Model: "sequential"
_________________________________________________________________
 Layer (type)                Output Shape              Param #   
=================================================================
 inputLayer (Flatten)        (None, 784)               0         
                                                                 
 hiddenLayer1 (Dense)        (None, 300)               235500    
                                                                 
 leaky_re_lu (LeakyReLU)     (None, 300)               0         
                                                                 
 hiddenLayer2 (Dense)        (None, 100)               30100     
                                                                 
 leaky_re_lu_1 (LeakyReLU)   (None, 100)               0         
                                                                 
 output_layer (Dense)        (None, 2)                 202       
                                                                 
=================================================================
Total params: 265,802
Trainable params: 202
Non-trainable params: 265,600
_________________________________________________________________

[2022-11-12 16:32:29,766: INFO: 02_transfer_learning_even_odd]: Base model is saved at artifacts\models\even_odd_model.h5
…
[2022-11-12 17:09:25,496: INFO: 01.01_base_model_creation_bin]: 
********************
[2022-11-12 17:09:25,496: INFO: 01.01_base_model_creation_bin]: >>>>> stage Creating binary model from scratch started <<<<<
[2022-11-12 17:09:25,497: INFO: common]: yaml file: configs/config.yaml loaded successfully
[2022-11-12 17:09:26,916: INFO: 01.01_base_model_creation_bin]: Creating binary model from scratch summary: 
Model: "sequential"
_________________________________________________________________
 Layer (type)                Output Shape              Param #   
=================================================================
 inputLayer (Flatten)        (None, 784)               0         
                                                                 
 hiddenLayer1 (Dense)        (None, 300)               235500    
                                                                 
 leaky_re_lu (LeakyReLU)     (None, 300)               0         
                                                                 
 hiddenLayer2 (Dense)        (None, 100)               30100     
                                                                 
 leaky_re_lu_1 (LeakyReLU)   (None, 100)               0         
                                                                 
 outputLayer (Dense)         (None, 2)                 202       
                                                                 
=================================================================
Total params: 265,802
Trainable params: 265,802
Non-trainable params: 0
_________________________________________________________________

[2022-11-12 17:10:03,667: INFO: common]: created directory at: artifacts\models
[2022-11-12 17:10:03,774: INFO: 01.01_base_model_creation_bin]: Base model is saved at artifacts\models\bin_scratch_model.h5
…
[2022-11-12 17:34:10,788: INFO: 02_transfer_learning_even_odd]: >>>>> stage Transfer learning completed!<<<<<

[2022-11-12 23:00:21,169: INFO: 01_base_model_creation]: 
********************
[2022-11-12 23:00:21,180: INFO: 01_base_model_creation]: >>>>> stage Base model started <<<<<
[2022-11-12 23:00:21,182: INFO: common]: yaml file: configs/config.yaml loaded successfully
[2022-11-12 23:00:30,468: INFO: 01_base_model_creation]: Base model summary: 
Model: "sequential"
_________________________________________________________________
 Layer (type)                Output Shape              Param #   
=================================================================
 inputLayer (Flatten)        (None, 784)               0         
                                                                 
 hiddenLayer1 (Dense)        (None, 300)               235500    
                                                                 
 leaky_re_lu (LeakyReLU)     (None, 300)               0         
                                                                 
 hiddenLayer2 (Dense)        (None, 100)               30100     
                                                                 
 leaky_re_lu_1 (LeakyReLU)   (None, 100)               0         
                                                                 
 outputLayer (Dense)         (None, 10)                1010      
                                                                 
=================================================================
Total params: 266,610
Trainable params: 266,610
Non-trainable params: 0
_________________________________________________________________

[2022-11-12 23:02:34,798: INFO: common]: created directory at: artifacts\models
[2022-11-12 23:02:35,258: INFO: 01_base_model_creation]: Base model is saved at artifacts\models\base_model.h5
…
